…
Data (x) dimension: (5818, 2590)
Label (y) dimension: (5818, 2)
y_test shape is (1163, 2)
valdata[1].shape (1163, 2)
Number of positive and negative examples in trainging and test data 
[ 3489.  1166.]
[ 875.  288.]
model fitting summary: CNN with multiple filters of different window sizes
____________________________________________________________________________________________________
Layer (type)                     Output Shape          Param #     Connected to                     
====================================================================================================
input_1 (InputLayer)             (None, 2590)          0                                            
____________________________________________________________________________________________________
embedding_1 (Embedding)          (None, 2590, 100)     2462400     input_1[0][0]                    
____________________________________________________________________________________________________
conv1d_1 (Conv1D)                (None, 2588, 128)     38528       embedding_1[0][0]                
____________________________________________________________________________________________________
conv1d_2 (Conv1D)                (None, 2586, 128)     64128       embedding_1[0][0]                
____________________________________________________________________________________________________
max_pooling1d_1 (MaxPooling1D)   (None, 517, 128)      0           conv1d_1[0][0]                   
____________________________________________________________________________________________________
max_pooling1d_2 (MaxPooling1D)   (None, 517, 128)      0           conv1d_2[0][0]                   
____________________________________________________________________________________________________
merge_1 (Merge)                  (None, 1034, 128)     0           max_pooling1d_1[0][0]            
                                                                   max_pooling1d_2[0][0]            
____________________________________________________________________________________________________
conv1d_3 (Conv1D)                (None, 1030, 128)     82048       merge_1[0][0]                    
____________________________________________________________________________________________________
max_pooling1d_3 (MaxPooling1D)   (None, 206, 128)      0           conv1d_3[0][0]                   
____________________________________________________________________________________________________
conv1d_4 (Conv1D)                (None, 202, 128)      82048       max_pooling1d_3[0][0]            
____________________________________________________________________________________________________
max_pooling1d_4 (MaxPooling1D)   (None, 6, 128)        0           conv1d_4[0][0]                   
____________________________________________________________________________________________________
flatten_1 (Flatten)              (None, 768)           0           max_pooling1d_4[0][0]            
____________________________________________________________________________________________________
dense_1 (Dense)                  (None, 128)           98432       flatten_1[0][0]                  
____________________________________________________________________________________________________
dense_2 (Dense)                  (None, 2)             258         dense_1[0][0]                    
====================================================================================================
Total params: 2,827,842
Trainable params: 2,827,842
Non-trainable params: 0
____________________________________________________________________________________________________
Train on 4655 samples, validate on 1163 samples
Epoch 1/20
4655/4655 [==============================] - 439s - loss: 0.5307 - categorical_accuracy: 0.7325 - val_loss: 0.5229 - val_categorical_accuracy: 0.7524 - val_auc: 0.7611
…
